checkpoint.pth (torch, 121515 bytes, 51 tensors)

conv1.0.weight f4 [8, 3, 3, 3]
0	0x3f180834	0.59387517
1	0xbf434730	-0.762805
2	0x3f1bac5f	0.6080989
3	0xbf05672d	-0.5211056
4	0xbf8e748e	-1.112932
5	0xbf8e6d2e	-1.1127069
6	0xbf55d364	-0.8352568
7	0x3fc96724	1.5734601
8	0xbf040787	-0.51573986
9	0xbe23996c	-0.15976495
10	0xbf13f330	-0.5779295
11	0x3eb80407	0.35940573
12	0xbe66017e	-0.22461507
13	0x3e3321d0	0.17493367
14	0x3db53d06	0.0884953
15	0xbf1f70c9	-0.6228147
16	0x401e9c9c	2.4783087
17	0xbe73bbc8	-0.23802102
18	0xbca093d7	-0.019601746
19	0xbfc3e1a4	-1.5303235
20	0xbd085a44	-0.03328921
21	0xbdd210dc	-0.10257122
22	0xbebcb512	-0.36856896
23	0xbee06951	-0.4383035
24	0xbe4cd923	-0.20004706
25	0x401beb3d	2.4362328
26	0xbe5d8956	-0.21634421
27	0x3f82b7e3	1.0212368
28	0x3f43281e	0.7623309
29	0xbfb47d64	-1.4100766
30	0xbebdb212	-0.3704992
31	0x3fa7301d	1.3061558
32	0x3fe1db2a	1.7645009
33	0xbfd65b1b	-1.6746553
34	0xbf2fb829	-0.6864038
35	0x3fa172f7	1.261321
36	0x3f9ac04e	1.2089937
37	0x3f343bd3	0.70403785
38	0xbffcbee6	-1.9745758
39	0x3e94a97e	0.29035562
40	0x3f893af8	1.0721121
41	0x3ec8a6fd	0.39189902
42	0xbfd17bac	-1.6365867
43	0xbf9c7027	-1.2221726
44	0x3eec4528	0.46146512
45	0x3f8a9be0	1.0828819
46	0x3ed9dad1	0.42549756
47	0xbf91da31	-1.1394712
48	0x3f2b2aeb	0.6686236
49	0x3f4431b0	0.7663832
50	0x3b2e6bc0	0.0026614517
51	0x3c5d5b3e	0.013510523
52	0x3d7c3cba	0.06158135
53	0x3f5e92e2	0.86942875
54	0xbdbaa0fa	-0.09112735
55	0x402925b2	2.6429257
56	0x3f99b5db	1.2008623
57	0xbf192206	-0.5981754
58	0xbf62ce5e	-0.8859614
59	0xbef452a2	-0.47719294
60	0xbf3ec82f	-0.74524206
61	0xbf622e52	-0.8835193
62	0xbc22f684	-0.009946469
63	0xbf838c7c	-1.0277247
64	0x40013497	2.0188348
65	0xbe7f9b3a	-0.24961558
66	0x3ce29bda	0.027662206
67	0xbf26aa21	-0.65103346
68	0xbfb35b97	-1.4012326
69	0x3edbcb56	0.4292857
70	0x3a6e06da	0.00090800005
71	0x3f527d6a	0.82222617
72	0xbf156d81	-0.58370215
73	0x3f8936f3	1.0719894
74	0xbf15bce0	-0.58491325
75	0x3f0c6a45	0.54849654
76	0xbed6749e	-0.41885847
77	0xbf8a33eb	-1.0797094
78	0x3f17ade3	0.59249705
79	0x3dd70f80	0.10501003
80	0x3e68b114	0.227238
81	0x3e094a29	0.13407196
82	0xbf375f7d	-0.7163008
83	0xbefcdd55	-0.49387613
84	0x3e76c5ca	0.24098888
85	0xbe2f138d	-0.17097302
86	0xbeddcb4c	-0.43319166
87	0xbf91bf8b	-1.1386579
88	0xbe9cafc0	-0.30602837
89	0x3ec01a26	0.3751995
90	0x3fe3a23a	1.7783883
91	0x3facb049	1.3491298
92	0x3fbea215	1.4893214
93	0x3f894e2a	1.0726979
94	0x3f08f08e	0.5349206
95	0x3f877caa	1.058492
96	0xbfd88903	-1.6916813
97	0xbdef8d20	-0.11696839
98	0x3f6bcaee	0.9210652
99	0x3f4d1966	0.8011688
100	0xbeb0af6e	-0.34508842
101	0x3e1d512b	0.15362994
102	0x3dcf7b5e	0.10130952
103	0xbfa5822a	-1.2930348
104	0xbf7b94ad	-0.98273736
105	0xc047b145	-3.1201947
106	0xc00348b2	-2.051312
107	0xbf8abaf2	-1.0838301
108	0x3ee81374	0.45327342
109	0xbe627aae	-0.22117111
110	0x3d97c663	0.07410886
111	0xbf4a4284	-0.79007745
112	0xbf35401b	-0.7080094
113	0x3f9eb255	1.2398173
114	0x3f316f7c	0.69310737
115	0x3ec174c4	0.37784398
116	0x3f7ab697	0.9793486
117	0xbe887d82	-0.26658255
118	0xbf75c087	-0.959969
119	0xbe98c31c	-0.29836357
120	0xc001dc7f	-2.029083
121	0xbfd57ad2	-1.6678107
122	0x3fc96a40	1.573555
123	0xbef9bc60	-0.4877653
124	0xbeebeb93	-0.46078166
125	0x3f231eb5	0.6371873
126	0x3e26cd2e	0.16289207
127	0x3e7a2ee9	0.24431957
128	0x3f5ec364	0.8701689
129	0xbfaa711a	-1.3315766
130	0xbf090962	-0.5352994
131	0x40255a02	2.5836186
132	0xbe944e34	-0.28965914
133	0xbba27f8c	-0.0049590524
134	0x3f873049	1.056161
135	0x3e1246a4	0.1428476
136	0x3e74c85b	0.23904555
137	0x3edf30f2	0.4359203
138	0x3f8cb6a8	1.0993242
139	0xbfb78856	-1.4338481
140	0xbee8d645	-0.45475975
141	0x3f8b96f0	1.0905437
142	0xbf2b5aba	-0.6693531
143	0xbf4dd0de	-0.8039683
144	0x3e2f0781	0.17092706
145	0xbf13410d	-0.57521135
146	0x3f460190	0.77346134
147	0x3fc42099	1.5322448
148	0xbfec1a0c	-1.8445449
149	0xbce4c06b	-0.027923783
150	0x3fa7bfdc	1.3105426
151	0xbfa99cf8	-1.3251028
152	0xbd1e54e3	-0.038655173
153	0xbaa66e7e	-0.0012697724
154	0xbf149038	-0.5803256
155	0xbda78288	-0.08179194
156	0x3fd0a065	1.6298949
157	0xbfbb91cb	-1.4653867
158	0xbf1f795d	-0.6229456
159	0x3fe2e9ac	1.7727561
160	0xbe8c08a2	-0.27350336
161	0xbec9679f	-0.3933687
162	0x3eb90529	0.3613675
163	0x3f79a21f	0.97513
164	0x3e327875	0.17428763
165	0x3f0d7ae1	0.55265623
166	0xbf0485c6	-0.5176662
167	0xbebd2169	-0.36939552
168	0x3fbecf2e	1.4906976
169	0x3f6fb74c	0.93639064
170	0x3d21aafb	0.0394697
171	0xbf2075c7	-0.62679714
172	0x3f42c068	0.7607484
173	0x3f8321aa	1.0244648
174	0xc00be10f	-2.1856115
175	0xc01bb7ec	-2.4331007
176	0x3d28d95c	0.041222915
177	0xbfdbcbca	-1.7171566
178	0xbff9f418	-1.9527617
179	0xbf667048	-0.9001508
180	0x3ddcf3f1	0.10788716
181	0x3fb47dda	1.4100907
182	0x3f20f099	0.6286712
183	0xbee2de2b	-0.44310126
184	0xbe5b6148	-0.21423829
185	0x3f1959c1	0.5990258
186	0xbe6d96e1	-0.23202087
187	0xbe99a6b6	-0.30010003
188	0x3df8213f	0.12115716
189	0x3f21ece3	0.63252085
190	0xbf35ab7e	-0.709648
191	0x3f099ac1	0.5375176
192	0xbe94e222	-0.29078776
193	0xbfd64690	-1.6740284
194	0xbf5a859d	-0.8536013
195	0xbf4db9f4	-0.80361867
196	0xbff17a33	-1.8865417
197	0xbf6a3359	-0.914846
198	0xbef15fa0	-0.4714327
199	0xbf36026b	-0.7109744
200	0xbeb5da06	-0.355179
201	0x3f31e6ef	0.69493
202	0x3e095a38	0.13413322
203	0x3e4e6426	0.20155391
204	0xbde97a96	-0.114003345
205	0xbf0ec5d4	-0.5577061
206	0xbe9ed41c	-0.31021202
207	0xbe2f79ed	-0.17136355
208	0x3ee7fe9a	0.45311433
209	0x3f1a901c	0.60376143
210	0x3f97a223	1.1846355
211	0x3fffffc1	1.9999925
212	0x3fce0883	1.6096348
213	0x3f10587d	0.5638502
214	0x3f4dd793	0.80407065
215	0x3f922516	1.1417568

conv1.1.weight f4 [8]
0	0x3fe2fa85	1.7732702
1	0x3f625ee5	0.8842605
2	0x400594fc	2.0872183
3	0x3fc21151	1.5161535
4	0x3fecc7e8	1.8498507
5	0x3fb3b61d	1.4039952
6	0x3fd8467a	1.6896508
7	0x3fc9fecd	1.5780884

conv1.1.bias f4 [8]
0	0x3f940890	1.1565113
1	0xbe0338eb	-0.12814681
2	0x3fb181bd	1.3867718
3	0xbf977eee	-1.1835611
4	0x3f7dcde6	0.991423
5	0x3f55a5c7	0.8345608
6	0x3ecf2609	0.40458706
7	0x3f8d8888	1.1057291

conv1.1.running_mean f4 [8]
0	0x3e207852	0.15670899
1	0xbf02802d	-0.5097683
2	0xbcaacc62	-0.02084941
3	0x3f2f84c9	0.6856199
4	0xbe3418be	-0.17587563
5	0xbc865a6d	-0.01640054
6	0x3f0f6e17	0.5602736
7	0xbd3d3007	-0.04618838

conv1.1.running_var f4 [8]
0	0x416a5775	14.646352
1	0x420aa275	34.65865
2	0x412486cc	10.282909
3	0x427ccd80	63.200684
4	0x42115e71	36.342228
5	0x41e77ce0	28.935974
6	0x42108ff4	36.14058
7	0x4212e89f	36.72717

conv23.0.weight f4 [8, 8, 3, 3]
0	0x3cf8d707	0.03037597
1	0xbe2a25dd	-0.16616006
2	0xbfb51049	-1.4145595
3	0xbf06ef98	-0.5270934
4	0xbd690ebd	-0.05689882
5	0xbf79e46a	-0.9761416
6	0xbf6a46c5	-0.91514236
7	0xbf4528f0	-0.7701559
8	0x3fa130bd	1.2592999
9	0xbf0e2d73	-0.555381
10	0x3e352d46	0.17693052
11	0x3e507c76	0.20359978
12	0x3ecccc31	0.39999536
13	0x3facb00d	1.3491226
14	0x3fd08b87	1.629258
15	0xbf7987ed	-0.9747303
16	0xbf064ae7	-0.5245804
17	0x3ec5126f	0.38490626
18	0xbea7c2d3	-0.32765827
19	0xbf81d569	-1.0143253
20	0x3f8b17d6	1.0866649
21	0xc029338a	-2.6437707
22	0xbf50dfcd	-0.8159149
23	0x3fbf3282	1.4937289
24	0x3f93195a	1.1492112
25	0x3eadaa8e	0.33919185
26	0xbfa1434c	-1.2598662
27	0xbe91f28e	-0.28505367
28	0x3e6ad036	0.22930989
29	0x3fd047c3	1.62719
30	0xc022d9cd	-2.5445435
31	0xbe8e9df6	-0.2785489
32	0x3fb6bb81	1.4275972
33	0xbfb72e50	-1.4311008
34	0xbdde2480	-0.108468056
35	0xbef20a00	-0.47273254
36	0x3f4bfa1c	0.7967851
37	0xbf6fe96f	-0.93715566
38	0xc007382c	-2.1128035
39	0xbe57c345	-0.21070583
40	0xc06d9dc2	-3.7127538
41	0xc021a419	-2.5256407
42	0xbe53e052	-0.2069104
43	0xbd2c9272	-0.04213185
44	0x3e8c5852	0.27411133
45	0xbea14fee	-0.31506294
46	0x3e69d292	0.22834232
47	0x3f46824d	0.77542573
48	0x3f810a9c	1.0081363
49	0x403b55b6	2.9271064
50	0x3f978409	1.1837169
51	0x3f03fd5f	0.5155849
52	0x3fafe9b6	1.3743198
53	0xbea825b2	-0.3284126
54	0xbc7cff86	-0.015441781
55	0x3e50b120	0.20380068
56	0x3eddd778	0.43328452
57	0xbf19ccf9	-0.6007839
58	0xbdadf7ac	-0.08494505
59	0x3f7c1a71	0.98477846
60	0x3fb2fd43	1.3983539
61	0x3f32d928	0.69862604
62	0xbe9bbad8	-0.30415988
63	0xbc8c493b	-0.017124763
64	0x3db9d28b	0.09073361
65	0xbf2fb979	-0.68642384
66	0x3ed899c4	0.42304814
67	0x3e959746	0.29216975
68	0xbea8781b	-0.32904133
69	0x3f445c31	0.7670317
70	0x3f1f8867	0.6231751
71	0x3e2905c9	0.16506113
72	0xbf88db62	-1.069195
73	0x3fb9303e	1.4467847
74	0x3e62fe2e	0.22167274
75	0x3d6c4ba6	0.05768933
76	0x3f324b8d	0.6964653
77	0xbe2b9a37	-0.16758047
78	0xbf72c1b1	-0.948268
79	0xbe76a21d	-0.24085279
80	0x3e4b31c1	0.19843198
81	0x3fa8d89a	1.3191102
82	0x3f9b3e7a	1.2128441
83	0x3fa6cc6f	1.3031138
84	0xbf955257	-1.1665753
85	0xbef00d45	-0.46885124
86	0xbf149153	-0.5803425
87	0xc01cafe3	-2.4482353
88	0xc008ee6a	-2.1395516
89	0xc02f1221	-2.7354815
90	0xbe1c020c	-0.15235156
91	0x3f6728c7	0.90296596
92	0x3eddce75	0.43321577
93	0x3ee559c1	0.4479504
94	0x400d3bcd	2.206775
95	0x40287e21	2.6326983
96	0xc024cfbb	-2.5751789
97	0xbf1b48f3	-0.60658187
98	0x3e8c755c	0.27433288
99	0xbfc71973	-1.5554641
100	0xbf9eee96	-1.2416561
101	0xbf84243a	-1.0323555
102	0xbfc4187b	-1.5319971
103	0xbe694511	-0.22780253
104	0xbec4a994	-0.38410628
105	0x3d5de20c	0.054170653
106	0x3fdeb952	1.7400305
107	0x3f85718d	1.0425278
108	0xbefc0ca0	-0.49228382
109	0xbf2ebb3c	-0.68254447
110	0x3fc16ca5	1.5111281
111	0x3f3a94d8	0.7288337
112	0xbecc8fe7	-0.3995354
113	0x3f6c3c50	0.9227953
114	0x3ea0f131	0.31434014
115	0xbcefef33	-0.029288864
116	0x3fbcf1f4	1.4761338
117	0x3f26bf77	0.651359
118	0xbdc9d01d	-0.098541476
119	0x3ef81914	0.48456633
120	0x3ca2d70f	0.019877939
121	0xc013fcfe	-2.3123164
122	0x3fa2210d	1.2666336
123	0x3ea0cab9	0.31404665
124	0xbff6c870	-1.9279919
125	0x3ea7a9c3	0.32746705
126	0xbebdf995	-0.37104478
127	0xbf671363	-0.90263957
128	0xbe9e7132	-0.30945736
129	0xbe0c3c5a	-0.13694897
130	0xbfad11b1	-1.3521024
131	0xbf4f2cd8	-0.809278
132	0x3f5d93af	0.8655347
133	0x3ed84ecf	0.42247626
134	0x3efb2a9b	0.49055943
135	0xbf614e7d	-0.8801039
136	0xbecc437a	-0.3989523
137	0xbeff1d7e	-0.49827188
138	0x3f21d29b	0.63211983
139	0x3fa9d1fe	1.326721
140	0x3eb8b17d	0.36072913
141	0x3da85bbe	0.082206234
142	0x3f0f6d41	0.56026083
143	0xbe623b89	-0.22093023
144	0xbf9cced1	-1.2250615
145	0x3f292022	0.66064656
146	0xbed2828c	-0.41115224
147	0xbf1b7c03	-0.607361
148	0xbf2309ac	-0.63686633
149	0x3e164c15	0.1467746
150	0x3f284b25	0.6573966
151	0xbfce0620	-1.6095619
152	0x3e9a56d4	0.3014437
153	0xc000502a	-2.0048928
154	0xbfd53240	-1.665596
155	0xc0137864	-2.304223
156	0x3e73e3db	0.23817389
157	0x3f98a981	1.1926728
158	0x3f4296a6	0.7601112
159	0xbffc2bf7	-1.9700917
160	0x3f29b9bd	0.6629904
161	0x3fb13aa5	1.3846022
162	0x3d2e9bc4	0.04262902
163	0xbf880a64	-1.0628171
164	0xbecfbf94	-0.4057585
165	0x3f16c9ee	0.5890187
166	0xbfc88787	-1.566636
167	0xbe12d5f0	-0.14339423
168	0x3d553fe1	0.052062873
169	0x3ea093af	0.31362674
170	0xbf0146aa	-0.5049845
171	0xbfa23ff7	-1.267577
172	0x3ebf4185	0.37354675
173	0x4024cf6e	2.5751605
174	0xc003a2e6	-2.0568175
175	0x3ef817a1	0.48455527
176	0x3f2a591f	0.6654224
177	0xbfb634c7	-1.4234856
178	0xbf81e110	-1.0146809
179	0xbff60972	-1.9221632
180	0xbfd5d43b	-1.6705393
181	0xbfd7cb0d	-1.6858841
182	0xbd545a99	-0.051844213
183	0x40082579	2.1272871
184	0x3e51dabb	0.20493595
185	0xbfeca951	-1.8489171
186	0x3f99b1f7	1.2007436
187	0x3fa925d2	1.3214667
188	0xbf4402ab	-0.7656657
189	0xbf8ca579	-1.0987998
190	0xbf115614	-0.5677197
191	0xbe363dfc	-0.17797083
192	0xbf3833e8	-0.719542
193	0xc0b0a2e7	-5.5198855
194	0x3ef8a4c7	0.48563215
195	0x3f0d404b	0.5517623
196	0xbf991205	-1.1958624
197	0xbef6086d	-0.48053303
198	0x3d3ae9b2	0.045633025
199	0x3d84a1f0	0.064761996
200	0x3fc021d5	1.5010325
201	0x3eccc0ee	0.39990944
202	0xbf04df48	-0.519032
203	0x3ddd1ddc	0.10796711
204	0xbe858a3f	-0.26082036
205	0x3c0af5e6	0.008481478
206	0xbea9e0c6	-0.331793
207	0xbf6bb081	-0.920662
208	0xbf6f9693	-0.93589133
209	0xbf613687	-0.8797383
210	0x3f0f6029	0.56006104
211	0x3f72e140	0.94874954
212	0x3f9ac9d8	1.2092848
213	0x3f44a18a	0.7680899
214	0x3f1450fd	0.5793608
215	0x3e894f12	0.26818138
216	0x3f11705b	0.56812066
217	0xbf6802a8	-0.90629053
218	0xbf217200	-0.63064575
219	0x3f2a2ce4	0.6647475
220	0x3fa672ac	1.3003745
221	0x3f52260c	0.82089305
222	0xbe83b1c0	-0.2572155
223	0xbf330241	-0.69925314
224	0xbf9b7ff3	-1.2148422
225	0x3de1084e	0.10987912
226	0x3ee6a819	0.45050123
227	0x3d478149	0.04870728
228	0xbfae04cd	-1.3595215
229	0xbe4abaaf	-0.19797777
230	0x3eaf93c8	0.34292436
231	0xbec547b7	-0.38531277
232	0x3ef6993e	0.4816379
233	0x3f43ca56	0.76480615
234	0xbe72a4c6	-0.23695669
235	0xbda60e42	-0.08108188
236	0x3eecaa25	0.4622356
237	0x3e99faeb	0.30074248
238	0x3fae719c	1.3628421
239	0xbf2462ce	-0.64213264
240	0xc02bc14d	-2.6836731
241	0xc0732a88	-3.799471
242	0xc00c5834	-2.1928835
243	0xbf8db3f6	-1.1070545
244	0xbf5cb629	-0.86215454
245	0xbfc07130	-1.5034542
246	0xbfbd81d6	-1.4805248
247	0xbfa11da2	-1.2587168
248	0xbfdff100	-1.7495422
249	0xbf3d674f	-0.7398576
250	0xbf571ae3	-0.840254
251	0x3f816131	1.0107785
252	0xbe55f0ac	-0.2089259
253	0xbf96c5af	-1.1779078
254	0xbf43cfde	-0.76489055
255	0x3f2e9040	0.6818886

conv23.1.weight f4 [8]
0	0x40015ddc	2.0213537
1	0x3f91cdf1	1.1390973
2	0x3feb41e8	1.8379488
3	0x3fe322d2	1.7745001
4	0x3fac5ef8	1.3466482
5	0x3fcb3a85	1.5877234
6	0x3fc5dbac	1.5457664
7	0x40170990	2.3599586

conv23.1.bias f4 [8]
0	0xbd69e6df	-0.05710494
1	0x3e947d6f	0.29001948
2	0xbcd928e3	-0.026508754
3	0x3ee6cda0	0.45078754
4	0x3f6459bf	0.8919944
5	0x3f2ca84d	0.67444307
6	0x3f0e9d9b	0.55709237
7	0x3f2c67c7	0.6734585

conv23.1.running_mean f4 [8]
0	0xc0d36166	-6.6056395
1	0x40cdd3b4	6.4320927
2	0xc18311ea	-16.383747
3	0xc1dc38fc	-27.527824
4	0xc12a4980	-10.642944
5	0xc08a372c	-4.319235
6	0xc1020425	-8.126012
7	0xc13dbbf8	-11.858391

conv23.1.running_var f4 [8]
0	0x435e119f	222.06883
1	0x42b28f94	89.280426
2	0x4309031a	137.01212
3	0x439dc949	315.57254
4	0x43168284	150.50983
5	0x4319b369	153.70082
6	0x43244b84	164.29498
7	0x43886eed	272.8666

conv23.4.weight f4 [8, 8, 1, 1]
0	0x3f8a35c2	1.0797656
1	0xbf2a5ca6	-0.6654762
2	0xbf006e09	-0.501679
3	0x3fb8b6b3	1.4430755
4	0x3f20d035	0.628177
5	0x3fdca02b	1.7236379
6	0xbf874cb1	-1.0570279
7	0xbf3d626e	-0.73978317
8	0xbe5bcdfa	-0.21465293
9	0x3dfe0220	0.12402749
10	0x3ff52ce3	1.9154323
11	0xbf24c244	-0.64358926
12	0xbfb7a141	-1.4346086
13	0xbfbecb17	-1.4905728
14	0x3f3a941e	0.7288226
15	0xbed0091d	-0.40631953
16	0x40189d83	2.3846138
17	0xbf8c496a	-1.0959904
18	0xbf1c2017	-0.60986465
19	0xbe0f393d	-0.13986678
20	0xbeb21519	-0.3478172
21	0x3f477801	0.77917486
22	0x3f0346f1	0.51280123
23	0xbf7bada4	-0.9831183
24	0xbf9643cb	-1.1739439
25	0xbed229bb	-0.41047463
26	0xbf51fe45	-0.8202861
27	0x4017a16d	2.3692276
28	0xbf3edcd9	-0.74555737
29	0xbebfdcbf	-0.37473103
30	0xbf933ae7	-1.150235
31	0x3f132f85	0.57494384
32	0x3f57120f	0.8401193
33	0x3c84f312	0.016229186
34	0x3fa89261	1.3169671
35	0x3eb25d63	0.34836873
36	0x3fbd3ce0	1.4784203
37	0xbfce1ee3	-1.6103176
38	0xbf93a2b8	-1.1534033
39	0xbeaf48d7	-0.3423526
40	0xbf11af40	-0.56908035
41	0xbf5bfe78	-0.85935163
42	0xbefba5b1	-0.4914985
43	0xbf6a14f9	-0.9143825
44	0xbde3d3cb	-0.11124381
45	0x3f1d7ca2	0.615183
46	0x3eb4ad7b	0.35288605
47	0x4043bcb5	3.0583928
48	0xbf68e85b	-0.90979546
49	0xbf9230c9	-1.1421138
50	0xbe62a331	-0.22132565
51	0x3f2ad24e	0.6672715
52	0x3f831a42	1.0242388
53	0x3e69433f	0.22779559
54	0x4011b3c0	2.276596
55	0xbf63f5b5	-0.89046794
56	0xbea6a33b	-0.3254641
57	0x40102202	2.2520757
58	0xbf02601e	-0.50927913
59	0xbe578926	-0.21048412
60	0xbf3b915d	-0.7326868
61	0xbf5f0fc4	-0.8713343
62	0xbf327a74	-0.697181
63	0x3f899341	1.0748063

conv23.5.weight f4 [8]
0	0x3f7ce4d7	0.9878668
1	0x3fc12a4c	1.5091033
2	0x3fd8aa22	1.692692
3	0x4013cfa1	2.3095477
4	0x4000ddfb	2.0135486
5	0x4004a8a5	2.0727932
6	0x3f828ae7	1.019864
7	0x3f077d3c	0.5292547

conv23.5.bias f4 [8]
0	0xbc8a641a	-0.016893435
1	0xbe9fb34e	-0.31191486
2	0x3f769e7a	0.96335566
3	0x3e8a2900	0.26984406
4	0xbe1a6900	-0.15079117
5	0x3e261b87	0.16221438
6	0xbe072ab4	-0.13199884
7	0x3db8b818	0.09019488

conv23.5.running_mean f4 [8]
0	0x3ff13c23	1.8846477
1	0xc0161cda	-2.345511
2	0x3e575ed7	0.21032272
3	0xbf857da2	-1.0428965
4	0x3e9a4364	0.3012954
5	0x401d3dcf	2.4568975
6	0x3fc0ccc1	1.5062486
7	0xbed55b2e	-0.41671127

conv23.5.running_var f4 [8]
0	0x40eaae55	7.333781
1	0x412e9751	10.9119425
2	0x415409a7	13.252357
3	0x41714a0c	15.080578
4	0x412d988e	10.849745
5	0x41b834d1	23.02579
6	0x41201db2	10.00725
7	0x40e25f77	7.0741534

conv3.0.weight f4 [16, 8, 3, 3]
0	0xbe437d9b	-0.19090883
1	0xbf7e652e	-0.9937314
2	0xbf53fd7c	-0.8280866
3	0x3f384b7b	0.71990174
4	0x3fd9bf7a	1.7011559
5	0x3f2667ac	0.6500194
6	0xbec35ea5	-0.38158146
7	0x3d982a7c	0.07429978
8	0xbe869e2b	-0.26292548
9	0x3e804606	0.25053424
10	0xbe6618ba	-0.2247037
11	0xbf04695b	-0.5172326
12	0x3f29c78f	0.6632013
13	0xbe396650	-0.18105435
14	0xbe9a44a5	-0.30130497
15	0x3e0d5b0d	0.13804264
16	0x3e9098ce	0.2824158
17	0x3ea16f51	0.3153024
18	0xbe11d774	-0.14242345
19	0xbb8d2393	-0.0043072193
20	0x3e67f822	0.22653249
21	0xbea31bd4	-0.3185717
22	0x3e99a2bf	0.30006978
23	0x3ec98a3b	0.39363274
24	0x3dbb5918	0.09147853
25	0x3f564010	0.836915
26	0x3e30c623	0.17263083
27	0x3ecd1824	0.4005748
28	0x3dc00072	0.09375085
29	0x3fb5640a	1.4171154
30	0xbea407d4	-0.32037222
31	0x3db015c4	0.085979015
32	0xbead7927	-0.33881494
33	0x3e463f05	0.19359978
34	0xba084bcc	-0.0005199283
35	0x3d9f554f	0.07779943
36	0xbfa6a263	-1.3018306
37	0xbf452bec	-0.77020144
38	0x3f032706	0.5123142
39	0xbf390209	-0.7226873
40	0xbe83da2f	-0.25752398
41	0xbea7f625	-0.3280498
42	0x3f1d9fce	0.6157197
43	0xbea63e93	-0.32469615
44	0xbf859a17	-1.043765
45	0xbe9ab9c4	-0.30219853
46	0x3e12d4f8	0.14339054
47	0xbebe2448	-0.37137055
48	0xbeb20455	-0.3476893
49	0xbf0229dd	-0.5084513
50	0xbea3451c	-0.31888664
51	0xbe40d3a1	-0.1883073
52	0xbf040a0a	-0.5157782
53	0xbf02ab33	-0.5104248
54	0xbe034f75	-0.12823279
55	0x3f265114	0.64967465
56	0x3f8b50bc	1.0884013
57	0xbf47cb5e	-0.7804469
58	0xbe1dd498	-0.1541313
59	0xbf63af30	-0.8893919
60	0xbfc24a50	-1.5178928
61	0xbf86a14c	-1.0517974
62	0xbfd6723b	-1.675361
63	0xbf9bd0f1	-1.2173139
64	0xbfb9e83d	-1.4523998
65	0xbff8a99b	-1.942676
66	0xbef46ba2	-0.47738367
67	0x3fc489da	1.5354569
68	0x3f5aff74	0.8554604
69	0x4026f09b	2.6084354
70	0x40ce09c2	6.438691
71	0x409e5aad	4.948569
72	0xbf05c681	-0.5225602
73	0x3ec2331b	0.37929615
74	0x3e50e998	0.20401609
75	0xbf687b29	-0.9081293
76	0xbfa7822f	-1.3086604
77	0xbf9c6a7c	-1.2219996
78	0x3f29a2dd	0.66264135
79	0x3fb72b15	1.4310023
80	0x3fd2280a	1.6418469
81	0xbe3cb49a	-0.18428269
82	0xbd5aefea	-0.053451456
83	0xbcd4614c	-0.025925301
84	0xbeb42183	-0.35181817
85	0x3eafc0e8	0.34326863
86	0xbe371952	-0.17880753
87	0xbfd5e3b9	-1.671012
88	0xbfc53d03	-1.5409244
89	0xbfbf6293	-1.4951957
90	0x3eaf0262	0.34181505
91	0x3e8a9322	0.27065378
92	0x3ea0bb7e	0.31393045
93	0xbf162b92	-0.58660233
94	0x3ee13d7e	0.43992227
95	0x3f8fa10b	1.1221021
96	0xbf8b7189	-1.0894023
97	0xbf9b2e3a	-1.2123482
98	0xbf851f4e	-1.0400178
99	0x3ebbc2e2	0.3667212
100	0x3e9f4f76	0.3111531
101	0x3e03e135	0.12878878
102	0xbf18a67c	-0.59629035
103	0xc01527c1	-2.3305514
104	0xbfb37d57	-1.4022626
105	0x402b6231	2.6778681
106	0x4096ff32	4.718652
107	0x40a26308	5.074589
108	0x3e842841	0.2581196
109	0x3f162870	0.5865545
110	0xbf333962	-0.70009434
111	0x3f4502e9	0.76957566
112	0xbe003016	-0.12518343
113	0xbfb3a468	-1.4034548
114	0x3e7de055	0.24792607
115	0xbe8632c8	-0.26210618
116	0x3ed1b744	0.40960133
117	0xbe594c13	-0.21220426
118	0x3e25d1a4	0.16193253
119	0x3ef2706d	0.473514
120	0x3d46fdad	0.048581768
121	0x3ebdbdbe	0.37058824
122	0x3ec91c77	0.3927953
123	0x3e0a23e3	0.13490252
124	0x3ea4cacf	0.3218598
125	0x3d6af7a5	0.05736508
126	0x3e45a7d9	0.1930231
127	0x3ec1a5e3	0.37821874
128	0x3eab6c57	0.33481094
129	0xbee472c3	-0.44618806
130	0x3d8136d6	0.06309287
131	0xbcdb6b4e	-0.026784565
132	0xbc83d0cd	-0.016090775
133	0x3f176260	0.59134483
134	0x3ef422c1	0.47682765
135	0xbeb6e1dc	-0.35719192
136	0xbf1900dc	-0.59766936
137	0xbe50c472	-0.20387438
138	0x3f0656af	0.5247602
139	0x3f8bec32	1.0931456
140	0x3f45cbf6	0.77264345
141	0x3ef4398a	0.4770015
142	0x3f27f46a	0.6560732
143	0x3d0b4c59	0.034008358
144	0x3fbe30a7	1.4858598
145	0xbf49cb97	-0.7882628
146	0xbdbfbc9f	-0.093621485
147	0x3f5299ed	0.8226612
148	0xbf731ba4	-0.9496405
149	0x3ebfaa9f	0.3743486
150	0xbf91104a	-1.1333096
151	0xbd82eb52	-0.0639254
152	0xbede7171	-0.43445924
153	0xbe5c1111	-0.21490885
154	0xbe8c9192	-0.2745481
155	0x3e981e3d	0.2971057
156	0xbf996c8e	-1.1986253
157	0xbfab0ae2	-1.3362696
158	0x3efeaf64	0.49743187
159	0xbd610acc	-0.054941937
160	0xbfa011f8	-1.2505484
161	0x3f34e13c	0.7065618
162	0x3e8e3d20	0.2778101
163	0x3f36c2bd	0.713909
164	0xbcbc56dc	-0.022990637
165	0xbf4d1625	-0.80111915
166	0x3edc3699	0.43010405
167	0xbfc40b86	-1.5316017
168	0x3835fdc0	4.3390086e-05
169	0x3e52d285	0.2058812
170	0xbf866cd6	-1.0501964
171	0x3dc0a93c	0.09407279
172	0xbfe9acdf	-1.8255881
173	0x3eea56bb	0.45769295
174	0xbd9889b3	-0.07448139
175	0xc07cb902	-3.948792
176	0x3e951d96	0.29124135
177	0x3f7dd823	0.99157923
178	0xc0079f8e	-2.1191134
179	0x3efec201	0.49757388
180	0xbceb6124	-0.028732844
181	0xbf66cb94	-0.90154386
182	0x3f98c140	1.1933975
183	0xbe51d939	-0.2049302
184	0xbf3ff355	-0.7498067
185	0x3fe4d5bb	1.7877725
186	0xbf841707	-1.0319527
187	0xbec2309e	-0.37927717
188	0x3fcf6ae4	1.6204495
189	0x3e8f744e	0.2801842
190	0x3ee54d6b	0.44785628
191	0x3c697b24	0.01425055
192	0xbe776227	-0.24158536
193	0x3ff36857	1.9016217
194	0x3e4ebbf1	0.20188881
195	0xbe244957	-0.16043602
196	0x40270a54	2.6100054
197	0x3ea22275	0.31666914
198	0x3f5ebbd2	0.8700534
199	0x3fa0d73a	1.2565682
200	0x3fa5c575	1.2950884
201	0xbfb76be4	-1.4329801
202	0xbd0cb5d4	-0.034353092
203	0x3f1f3b03	0.6219942
204	0xbffedbcc	-1.9910827
205	0xbf80d63f	-1.0065383
206	0x3f8b49ff	1.0881957
207	0xbe7c3704	-0.24630362
208	0x3e524da9	0.20537437
209	0x3c9250e8	0.017860845
210	0xbf454b56	-0.7706808
211	0x3e9afa66	0.30269164
212	0x3f0005d3	0.5000889
213	0xbf8f6850	-1.1203709
214	0xbebdcc98	-0.37070155
215	0x3eefaef8	0.46813178
216	0xbe93bcb8	-0.28854918
217	0xbf68bc17	-0.90912
218	0xbf20e5db	-0.6285073
219	0x3f1b2bd6	0.60613763
220	0xbf557a80	-0.83390045
221	0xbe0302e4	-0.12794071
222	0x3fd80f9c	1.6879764
223	0x3dbf1faa	0.09332211
224	0xbf855bb1	-1.0418607
225	0xbed52000	-0.41625977
226	0xbf554142	-0.833027
227	0xbfe44036	-1.7832096
228	0xbfa0800a	-1.2539074
229	0xbf979673	-1.1842788
230	0xc011caf9	-2.2780135
231	0xbf8c29f4	-1.0950303
232	0xbff961f4	-1.9483018
233	0xbffebdc4	-1.9901662
234	0x3ecd2fa3	0.40075406
235	0xbde76a52	-0.11299576
236	0xbdfceb91	-0.12349618
237	0x3efc43c8	0.49270463
238	0xbf824442	-1.0177081
239	0xbed08a6f	-0.40730616
240	0x3f9ca007	1.2236336
241	0x3f3d3f2e	0.7392453
242	0x3f4ac7a1	0.7921086
243	0x3ea36e8a	0.31920272
244	0xbe596e8d	-0.21233578
245	0xbf4c4f96	-0.7980894
246	0xbf67e9cc	-0.9059112
247	0xbe97312b	-0.295297
248	0xbe6c86ca	-0.23098293
249	0x3f162de5	0.5866378
250	0x3f2fd47d	0.68683606
251	0x3da7f0f3	0.08200254
252	0x3f3c8178	0.73635054
253	0xbf76c9a2	-0.9640142
254	0xbfd653ad	-1.6744286
255	0xbf49a6eb	-0.7877032

conv3.1.weight f4 [16]
0	0x3fd12f6b	1.6342596
1	0x3fdcabce	1.7239931
2	0x3fe573ea	1.7925999
3	0x3fbaa757	1.4582318
4	0x4021a68b	2.52579
5	0x3fa1894c	1.2620025
6	0x4029f055	2.6552937
7	0x3fb83095	1.4389826
8	0x4006a3e1	2.1037524
9	0x3fd6d32c	1.6783195
10	0x3fdc2950	1.7200108
11	0x3fe567dd	1.7922322
12	0x3ff86932	1.9407103
13	0x3fafb7e4	1.3727994
14	0x3fda76c5	1.7067496
15	0x3fdcc3b3	1.7247223

conv3.1.bias f4 [16]
0	0x3eb3a501	0.35086825
1	0x3d17b1e3	0.03703488
2	0xbeba4419	-0.3638008
3	0x3f0d619f	0.5522708
4	0x3c91c302	0.017793182
5	0x3f34e740	0.7066536
6	0x3e27a0e7	0.16369973
7	0x3e648b96	0.22318873
8	0xbd09da40	-0.033655405
9	0x3f2b122b	0.668246
10	0x3dcfc96c	0.1014584
11	0xbdc73f9c	-0.097289294
12	0x3e80dcda	0.25168496
13	0x3eafc04b	0.34326395
14	0x3f772707	0.96543926
15	0x3efdd7ff	0.49578854

conv3.1.running_mean f4 [16]
0	0x408c698a	4.387883
1	0x41adb523	21.713446
2	0xc0c3c5eb	-6.11791
3	0xc02073a3	-2.507058
4	0xc206f6de	-33.74108
5	0xc1c91e1a	-25.139698
6	0xc2102349	-36.03446
7	0xc16626b4	-14.384449
8	0xc275bc10	-61.433655
9	0xc2950b49	-74.52204
10	0x40037604	2.054078
11	0xc10b00d1	-8.687699
12	0xc2358c17	-45.386806
13	0x41954ba2	18.66193
14	0xc169ce94	-14.612934
15	0x418b48fe	17.41064

conv3.1.running_var f4 [16]
0	0x43c789b4	399.0758
1	0x441b5360	621.30273
2	0x43e7ce10	463.60986
3	0x44178628	606.0962
4	0x441a1acd	616.41876
5	0x4393bddc	295.48328
6	0x443c291c	752.64233
7	0x439f8d83	319.10556
8	0x441967cc	613.6218
9	0x44377ef5	733.9837
10	0x43cfdfaa	415.74738
11	0x438c7c5d	280.9716
12	0x444b907d	814.2576
13	0x441bec01	623.68756
14	0x43931787	294.1838
15	0x440a419b	553.0251

conv4.0.weight f4 [32, 16, 3, 3]
0	0xc002a5e3	-2.041375
1	0xbf9d6bb7	-1.2298497
2	0xbfd721db	-1.6807207
3	0xbf8f90ee	-1.1216104
4	0x3e8409bf	0.25788686
5	0xbfbd0051	-1.4765722
6	0x3f0ca823	0.54944056
7	0x3e2ba7bc	0.16763204
8	0xbf99764b	-1.1989225
9	0xbeb016d0	-0.34392405
10	0xbf915ef6	-1.1357105
11	0x3f06a69a	0.52597964
12	0xbfe7e8d5	-1.811793
13	0x3d4277b4	0.04747744
14	0x3edfa258	0.43678546
15	0x3ea14ddb	0.31504712
16	0x3f61aff2	0.88159096
17	0x3ec21cf3	0.37912712
18	0xbecd8885	-0.4014322
19	0x3d8524f5	0.065011896
20	0xbf2ea0a4	-0.6821387
21	0x3e0e768a	0.13912407
22	0x3f922f73	1.142073
23	0x3ff91f23	1.9462627
24	0xbe31cbe7	-0.17362939
25	0xbe215124	-0.15753609
26	0xbf2a662c	-0.6656215
27	0xbf001f48	-0.5004773
28	0x3ebb2c75	0.36557356
29	0x3f68eabf	0.90983194
30	0x3e5d6dbb	0.2162389
31	0x3f5cbaa8	0.86222315
32	0xbf1e7d8d	-0.61910325
33	0x3f9a3c7c	1.2049708
34	0x3f82e0f5	1.0224901
35	0xbe3d11d6	-0.18463835
36	0xbe227858	-0.1586622
37	0x3ff37084	1.9018712
38	0x3f96ba13	1.1775535
39	0x3f0b5125	0.5442069
40	0x3e29d4ea	0.16585127
41	0xbf977793	-1.1833366
42	0x3f219e36	0.63132036
43	0xc018bee2	-2.3866506
44	0xc04a4304	-3.1603403
45	0xbfa267cb	-1.2687925
46	0x3e591e7d	0.21203037
47	0x3e944709	0.28960446
48	0xbe9a5b1c	-0.30147636
49	0x3ea5b92e	0.32367843
50	0xbeb6d932	-0.35712582
51	0xbf5f6d67	-0.8727631
52	0xbf0e159f	-0.5550174
53	0xbfc136a3	-1.5094799
54	0x3cf246c1	0.029574754
55	0x3f999a39	1.200019
56	0x3eb06452	0.34451538
57	0x3ecaf1ff	0.39637753
58	0xbfa67f63	-1.3007625
59	0xc010f05d	-2.2646706
60	0x3f9bede8	1.2181978
61	0x3f566029	0.8374048
62	0x3eeb3c77	0.4594457
63	0xbf296272	-0.6616584
64	0xbf1038c5	-0.56336623
65	0xbcf17d6d	-0.029478753
66	0xbef369e6	-0.47541732
67	0xbea9f3db	-0.3319386
68	0xbd17d1b3	-0.03706522
69	0xbf858b52	-1.0433142
70	0xbfd73dab	-1.6815695
71	0xc0408590	-3.008152
72	0x3f1dd1e1	0.61648375
73	0xbf008073	-0.50196
74	0xbdaf1555	-0.08548991
75	0xbe74ff28	-0.2392546
76	0xbe90a05b	-0.28247342
77	0xbfd040d7	-1.6269788
78	0x3f22c135	0.6357606
79	0x3f71ac12	0.94403183
80	0xbf067020	-0.5251484
81	0x3e1eca2c	0.1550681
82	0x3e25dc4c	0.16197318
83	0xbeb261dd	-0.3484029
84	0x3f1466a4	0.5796912
85	0x3fbb0569	1.4611026
86	0xbf5fefbe	-0.8747519
87	0xbf95bc41	-1.1698076
88	0xbfffc5e8	-1.9982271
89	0xc03a6872	-2.9126248
90	0x3eb561ae	0.35426086
91	0xbf114eaa	-0.56760657
92	0x3f0f6ec3	0.56028384
93	0xbf6bfc79	-0.9218212
94	0x3fbc461c	1.4708896
95	0xbfc380fd	-1.5273739
96	0xbf16d7ce	-0.5892304
97	0xbfb710ca	-1.4301999
98	0x3ead1773	0.33806953
99	0xbe52716f	-0.20551084
100	0xbdf9384e	-0.121689424
101	0x3e921b74	0.2853657
102	0x3ebab9ee	0.36469978
103	0x3c7f2534	0.015572835
104	0xbea62488	-0.32449746
105	0x3fce3e25	1.6112715
106	0x3f82c4c0	1.0216293
107	0xbccf6a1e	-0.025319155
108	0xbf1b4b17	-0.60661453
109	0x3e5de748	0.21670258
110	0xc002939c	-2.0402594
111	0xbf3d701d	-0.73999196
112	0xc0237727	-2.5541475
113	0xbdcb151e	-0.09916137
114	0x3f0f9af9	0.56095845
115	0x3e3660f9	0.1781043
116	0x3fe208c7	1.7658929
117	0xbf071f7c	-0.52782416
118	0x3f0986ba	0.537212
119	0x3f27a1d1	0.6548129
120	0xbe9b2242	-0.30299574
121	0x3f2ed89e	0.6829928
122	0x3e2b614d	0.16736336
123	0x3f66eb8d	0.9020317
124	0xbdc9afc2	-0.09847976
125	0xbfb32cf9	-1.39981
126	0x3f096577	0.5367045
127	0x3d7d1c6e	0.06179469
128	0xc00f8ca6	-2.2429595
129	0x3f3396a8	0.7015176
130	0xbfcfcf9f	-1.6235236
131	0xbf9d79a9	-1.2302753
132	0xbf12f8b2	-0.5741073
133	0x3f92cacc	1.1468139
134	0x40552b48	3.3307667
135	0xbf775687	-0.96616405
136	0xbf1d7edf	-0.61521715
137	0xbf13bb4d	-0.57707673
138	0xbf3354b5	-0.7005113
139	0xbf3557af	-0.7083692
140	0xbfe07c03	-1.7537845
141	0x3e8aeb7c	0.27132785
142	0xbf86a376	-1.0518634
143	0xbfc6436d	-1.5489327
144	0x3f8114df	1.0084494
145	0x3f558d4a	0.83418715
146	0x3ec0d8b2	0.37665325
147	0x3f669cb3	0.90082854
148	0x3e52e11f	0.2059369
149	0xbf482be5	-0.7819198
150	0x3ec164f7	0.37772343
151	0xbc10a5cd	-0.0088285925
152	0xbf6b0bd8	-0.9181495
153	0x40268f9a	2.6025147
154	0x3dc8a857	0.09797733
155	0x3f34590d	0.7044838
156	0x403c5c69	2.9431403
157	0x3f499499	0.7874237
158	0x3f2dbdde	0.6786784
159	0x4029a1f3	2.6505096
160	0x3f132fec	0.57495
161	0x3fcba74f	1.5910434
162	0xbf7b0fd1	-0.9807101
163	0x3c2f5c0c	0.010703098
164	0x3f27a247	0.6548199
165	0xbf8cef13	-1.101046
166	0x3e6a9844	0.22909647
167	0x3f94b1a8	1.1616716
168	0xbfadb5f0	-1.3571148
169	0x3fb4ab41	1.4114763
170	0x3fe5adf7	1.7943715
171	0xbf4a4fa0	-0.7902775
172	0xbf656b12	-0.896165
173	0x3e2d8774	0.16946203
174	0xbf09a20a	-0.53762877
175	0xbe775347	-0.24152862
176	0x3f0f26ae	0.55918396
177	0xbe5fce1a	-0.21855965
178	0xbf53cf35	-0.8273805
179	0xbf39881c	-0.7247331
180	0x403065a3	2.7562034
181	0x3e867068	0.26257634
182	0xbf33ca41	-0.7023049
183	0x3fb18220	1.3867836
184	0xbe92a83a	-0.28643972
185	0xbb39a213	-0.0028325364
186	0x3fc584ab	1.5431112
187	0xbf7920f6	-0.9731592
188	0xbe7dd808	-0.2478944
189	0x3cd04013	0.025421178
190	0xbfac4901	-1.3459779
191	0xbfe0c125	-1.7558943
192	0x3e15de48	0.14635575
193	0xbf9e0d65	-1.2347838
194	0xbfca1130	-1.5786495
195	0x3d5a7076	0.053329907
196	0xbf858145	-1.0430075
197	0xbfbc3b78	-1.4705648
198	0x401e0727	2.4691865
199	0x3b967503	0.0045915856
200	0xbf7e33e6	-0.9929794
201	0x3fde372c	1.7360587
202	0xbd17beb9	-0.03704712
203	0xbf116123	-0.56788844
204	0x4023161a	2.548224
205	0x3f5ec8b2	0.87024987
206	0xbf1dd571	-0.6165381
207	0x3fd73864	1.6814084
208	0x3f359d01	0.70942694
209	0x3f467adc	0.7753122
210	0x3ea00fdd	0.31262103
211	0x3dda85b0	0.1067003
212	0xbf0d77eb	-0.55261105
213	0x3ede6d6a	0.4344285
214	0x3eda8298	0.4267776
215	0x3e8c0c9c	0.2735337
216	0x3ec6763d	0.38762084
217	0x3f19c52e	0.600665
218	0x3fd263d0	1.643671
219	0x3ef9e9cc	0.48811185
220	0x3e886880	0.26642227
221	0x3f7231ab	0.9460704
222	0xbf615d61	-0.8803311
223	0xbf7c8ad9	-0.98649365
224	0xbf051134	-0.51979375
225	0xbf0a4016	-0.5400404
226	0xbe1589c6	-0.14603338
227	0xbf0e833a	-0.55668986
228	0xbea2421a	-0.31691056
229	0xbddc764e	-0.10764752
230	0xbeace52c	-0.33768594
231	0x3ed9d967	0.42548677
232	0x3e06de3e	0.13170716
233	0x3c23bc84	0.009993676
234	0xbf8cbcd1	-1.0995122
235	0x3e16fed6	0.1474565
236	0xbebe78cf	-0.37201545
237	0xbf997898	-1.1989927
238	0xbf88a93b	-1.0676645
239	0xbf149ddf	-0.5805339
240	0xbef3393e	-0.4750461
241	0x3e276f00	0.16350937
242	0xbf561e15	-0.8363965
243	0xbfb62f58	-1.4233198
244	0xbf360ad7	-0.7111029
245	0xbfa1b8b8	-1.2634497
246	0xc00079d0	-2.0074348
247	0xbf202d4f	-0.62569135
248	0xbfc75235	-1.5571963
249	0xc00cf40c	-2.2023954
250	0xbe04579f	-0.1292405
251	0xbf2ef11e	-0.68336666
252	0x3fbd3dd6	1.4784496
253	0xbed6012d	-0.41797772
254	0x3e1497ff	0.14511107
255	0x3ec1320e	0.377335

conv4.1.weight f4 [32]
0	0x3fe81f59	1.8134567
1	0x3fe3f298	1.7808409
2	0x3fea0e79	1.8285667
3	0x3f9dba92	1.2322562
4	0x3ff0e864	1.882092
5	0x3fc85d42	1.565346
6	0x3fd7775e	1.6833303
7	0x3fc46cd5	1.5345713
8	0x3ff041e8	1.8770113
9	0x3fc68b5e	1.5511281
10	0x3fc9350a	1.5719311
11	0x3feac3e4	1.8341031
12	0x3ffc2c72	1.9701064
13	0x3fe1c1d6	1.7637279
14	0x3fb2aebf	1.3959578
15	0x3fc866da	1.5656388
16	0x3fd4b461	1.6617547
17	0x3ff4430e	1.9082963
18	0x3fd70e29	1.6801196
19	0x3fba18d6	1.4538829
20	0x3fe959d9	1.8230544
21	0x3fbdb153	1.481974
22	0x3faee3a1	1.3663217
23	0x3fdb5904	1.713654
24	0x3fca3aac	1.5799155
25	0x3fa4507e	1.2837064
26	0x3fda4ebb	1.7055277
27	0x3fd0b437	1.6304997
28	0x3fcc92e1	1.5982324
29	0x3f86cfa7	1.053212
30	0x3f930f5e	1.1489065
31	0x3fc951b4	1.5728059

conv4.1.bias f4 [32]
0	0xbf1e08df	-0.61732286
1	0x3d8b7dcf	0.068111055
2	0xbf4ec808	-0.80773973
3	0x3f43d337	0.76494163
4	0xbf6c5b86	-0.92327154
5	0xbf42dbb6	-0.761165
6	0xbf0bce0b	-0.5461127
7	0x3cf16e0b	0.029471418
8	0xbf84d673	-1.0377945
9	0xbf06ca0d	-0.52652055
10	0xbf2f0032	-0.68359673
11	0xbc2aa5ca	-0.010415504
12	0xbf4cb455	-0.79962665
13	0xbec1e16e	-0.37867302
14	0xbdbb36a2	-0.0914128
15	0xbf0573e2	-0.5212995
16	0xbf306c80	-0.6891556
17	0xbf9d1ef4	-1.2275071
18	0xbe7817f9	-0.24227895
19	0xbe51f3d4	-0.2050317
20	0xbf22d160	-0.6360073
21	0xbdb060f6	-0.08612244
22	0x3e430e8f	0.19048522
23	0xbf16c9cd	-0.58901674
24	0x3ee86aa6	0.45393866
25	0x3f725a63	0.9466917
26	0x3ed83d7a	0.42234403
27	0x3f08daa1	0.534586
28	0xbeb2395c	-0.34809387
29	0x3e13878e	0.14407179
30	0x3d803e10	0.062618375
31	0xbeb3d9da	-0.35127145

conv4.1.running_mean f4 [32]
0	0xc1d9829d	-27.188776
1	0xc056311c	-3.3467474
2	0xc1a8fb5e	-21.122738
3	0x41ea9f1c	29.32769
4	0xc1b261d0	-22.29776
5	0xc1ca09d2	-25.254795
6	0x4031dfde	2.7792888
7	0xbfa30a0c	-1.2737441
8	0xc18b30c0	-17.398804
9	0x41d15320	26.165588
10	0xc14346d9	-12.204797
11	0x40815638	4.0417747
12	0x41daa59a	27.33086
13	0xc18324c4	-16.392952
14	0xc10197eb	-8.099589
15	0xc0aa73ea	-5.3266497
16	0xc194636b	-18.548544
17	0xc1805a12	-16.04398
18	0xc203aaeb	-32.916912
19	0x412f03f5	10.938466
20	0xc0c6fefc	-6.218626
21	0xc19adf72	-19.359104
22	0xc267fade	-57.994987
23	0xc1bd31b6	-23.649273
24	0xc2333992	-44.80622
25	0x41880ad2	17.005283
26	0xc23300f5	-44.750935
27	0x3f2681d6	0.65041864
28	0xc1b4aa6c	-22.583214
29	0xc22d2643	-43.287365
30	0x4027d7b1	2.6225398
31	0xc210e4be	-36.22338

conv4.1.running_var f4 [32]
0	0x43cac939	405.57205
1	0x43c0c899	385.56717
2	0x4439ba9b	742.9157
3	0x43f83754	496.43225
4	0x44085452	545.3175
5	0x43a4fc36	329.9704
6	0x43c72cd8	398.35034
7	0x43acb2d5	345.39713
8	0x4394d297	297.64523
9	0x43d04dab	416.60678
10	0x43e58037	459.00168
11	0x4382d4c1	261.66214
12	0x43d4f8e8	425.94458
13	0x43a73ec0	334.49023
14	0x43ba4804	372.56262
15	0x43b19c13	355.21933
16	0x435f9f08	223.62122
17	0x439fdf9b	319.74692
18	0x44361d87	728.46136
19	0x438fa0a5	287.25504
20	0x43a9ec55	339.84634
21	0x439068b2	288.81793
22	0x43904c6c	288.59705
23	0x43abd6a1	343.6768
24	0x445a2e28	872.7212
25	0x44054435	533.06573
26	0x44431906	780.391
27	0x4395347d	298.41006
28	0x43c6725c	396.89343
29	0x43b827bb	368.3104
30	0x43cde177	411.76144
31	0x43fd9c16	507.21942

conv56.0.weight f4 [32, 32, 3, 3]
0	0xbf5586d9	-0.83408886
1	0x3e6d9cf7	0.23204409
2	0x3f14488a	0.57923186
3	0xbd935ed4	-0.071958214
4	0x3f1ea62d	0.61972314
5	0x3f7b1cc1	0.9809075
6	0xbfa90139	-1.3203498
7	0xbf5355f0	-0.82553005
8	0xbf8d09f5	-1.1018664
9	0xbf94d55c	-1.1627612
10	0xbf6a8fd4	-0.91625714
11	0x3e985b13	0.29756984
12	0xbf2286d3	-0.63486975
13	0xbf56281f	-0.8365497
14	0x3f974d45	1.1820456
15	0xbdc38694	-0.09547153
16	0x3f21c579	0.63191944
17	0x4001391a	2.0191102
18	0x3f0117d3	0.5042698
19	0x3c46e512	0.012139576
20	0x3f2d7898	0.67762136
21	0x3f4ed471	0.8079291
22	0xbc4461a6	-0.011986172
23	0x3f8ccfcb	1.1000913
24	0x3fad764e	1.3551729
25	0x3f044b1a	0.51677096
26	0x3f846291	1.034258
27	0xbed2bd23	-0.41159925
28	0x3ee985b0	0.45609808
29	0x3f37f9c0	0.71865463
30	0xbf746ce0	-0.9547863
31	0xbf66edb5	-0.9020646
32	0xbed28fb3	-0.4112526
33	0xbf8432a4	-1.0327954
34	0xbe0827e8	-0.13296473
35	0x3f087f27	0.5331902
36	0x3fdbe5c2	1.7179492
37	0x3f0614cd	0.5237549
38	0x3fbae709	1.4601756
39	0x3f057603	0.52133197
40	0x3db294fa	0.08719821
41	0x3f90c58e	1.1310289
42	0x3e9836f8	0.29729438
43	0x3f21540a	0.6301886
44	0x3f86a416	1.0518825
45	0xbf1286f4	-0.5723717
46	0xbff05feb	-1.8779272
47	0xc0301145	-2.751054
48	0xbe106ef1	-0.14104821
49	0xbf69332c	-0.9109371
50	0xc01b6180	-2.427826
51	0x3e2c87c0	0.1684866
52	0xbfc64df4	-1.549254
53	0xc034d499	-2.825476
54	0x3f05b254	0.5222523
55	0x3f24f230	0.6443205
56	0x3e5faa0c	0.21842211
57	0xbe75e809	-0.24014296
58	0xbf58f8b3	-0.84754485
59	0x3f0db171	0.5534888
60	0x3e02d483	0.1277638
61	0x3df2ff60	0.11865115
62	0x3fa0841a	1.2540314
63	0x3f728665	0.9473632
64	0x3e4a1e30	0.19738078
65	0xbf997517	-1.1988858
66	0x3f4d578a	0.802117
67	0xbf3b90cb	-0.7326781
68	0xbfe257e5	-1.7683073
69	0x3f8f1110	1.1177082
70	0xbed4e2d1	-0.41579297
71	0xbf3c5ded	-0.7358082
72	0x3ea7a87a	0.32745725
73	0x3e213df7	0.15746294
74	0xbf80ba9b	-1.0056947
75	0x3f135b8a	0.5756155
76	0x3ef1a1e6	0.4719383
77	0xbf38ebf3	-0.7223503
78	0xbe30b1cb	-0.17255323
79	0xbd99fddb	-0.07519122
80	0xbfdcc76c	-1.7248359
81	0xbf95aadc	-1.1692767
82	0x3f195fb1	0.5991164
83	0xbe440eed	-0.19146319
84	0xbf95f458	-1.1715193
85	0xbeb323f6	-0.34988374
86	0xbe82cb1b	-0.25545582
87	0x3fcbc74e	1.5920198
88	0x3f8400fa	1.0312798
89	0x3f94ce36	1.162543
90	0x3fa4ec80	1.2884674
91	0x3f171967	0.59023136
92	0x3fd497ff	1.6608886
93	0xbf99b9af	-1.2009791
94	0xbf71fa9e	-0.94523036
95	0x3e92cd2d	0.28672162
96	0x3e606d11	0.21916606
97	0x3f6cd3b5	0.9251054
98	0x40094950	2.1450996
99	0x3f85f6fe	1.0466001
100	0x3faf560d	1.3698136
101	0xbed548ed	-0.416572
102	0x3f8c9d65	1.0985533
103	0x3f3f97f0	0.74841213
104	0xbfb15f54	-1.3857217
105	0xbf056f33	-0.521228
106	0xbfb92c27	-1.4466599
107	0xc0044ad9	-2.0670683
108	0xbeda05a4	-0.42582428
109	0x3f28b14b	0.6589553
110	0x3fad904e	1.3559663
111	0xbef8f29c	-0.48622596
112	0xbd80ca48	-0.06288582
113	0x3f1e3a08	0.618073
114	0xbd11f171	-0.035630647
115	0xbf0f0f6b	-0.558829
116	0xbdf89b64	-0.121390134
117	0x3f4f8e48	0.8107648
118	0x3f806813	1.0031761
119	0xbec9043b	-0.3926104
120	0x4000d71d	2.0131295
121	0x3f853065	1.0405394
122	0x3eb376af	0.35051486
123	0x3e8f594c	0.27997816
124	0xbe604a06	-0.21903238
125	0x3f8aef29	1.0854236
126	0xbfbcf049	-1.4760829
127	0xbfaae8f6	-1.3352344
128	0xbd9b7fec	-0.075927585
129	0xbe45002c	-0.19238347
130	0xbeaf2c8a	-0.34213668
131	0x3fab906e	1.3403451
132	0x3d67ff42	0.056639917
133	0xbdcf8665	-0.101330556
134	0x400805d5	2.125356
135	0x3f4440fc	0.7666166
136	0x3ed09c9b	0.4074448
137	0xbf7939ec	-0.97354007
138	0x400914e4	2.1419
139	0x3fc6bf66	1.552716
140	0xbd3b9416	-0.045795523
141	0x3f38a51c	0.72126937
142	0x3e19349c	0.14961475
143	0x3d8b6bce	0.068076715
144	0x3eb940f4	0.36182368
145	0xbe824cf4	-0.25449336
146	0x3f397773	0.7244789
147	0x3f932331	1.1495115
148	0xbf0c6dd7	-0.548551
149	0xbf48f050	-0.7849169
150	0x3f915a2e	1.1355646
151	0xbf2d49dd	-0.6769083
152	0xbf79c14e	-0.97560585
153	0x3fcdefe0	1.6088829
154	0x3fdd8853	1.7307228
155	0x40106f82	2.256806
156	0x400fcc4f	2.246845
157	0x4004f0a8	2.0771885
158	0x3fd38c21	1.6527139
159	0x3fdb7f03	1.7148136
160	0x3f67219a	0.90285647
161	0x3e67f173	0.226507
162	0xbea6e9f0	-0.32600355
163	0xbfbd2433	-1.4776672
164	0xbff75013	-1.9321312
165	0x3c2d8b5c	0.010592308
166	0x3d9708f4	0.073747545
167	0xbfdeda0c	-1.7410293
168	0xbec8ac8a	-0.39194137
169	0xbed05267	-0.40687868
170	0xc02051ea	-2.5049996
171	0xbf4ec5f8	-0.80770826
172	0xbc031e59	-0.008002841
173	0xbef09cca	-0.4699462
174	0xbfed213e	-1.852577
175	0xbf132a91	-0.57486826
176	0xbedd88b3	-0.43268356
177	0xc029735c	-2.647666
178	0xbf3fb61c	-0.7488725
179	0xbfa19140	-1.2622452
180	0xbf5d682f	-0.86487097
181	0xbea63a0f	-0.3246617
182	0xbf504c91	-0.8136683
183	0xbdb1914a	-0.0867029
184	0xbe9d53c3	-0.30727968
185	0xbedbae4e	-0.4290642
186	0xbf019af5	-0.5062707
187	0xbfaba3e2	-1.3409388
188	0xbf51deef	-0.81980795
189	0x401ba0ee	2.4316974
190	0x3f7653e9	0.96221787
191	0x3f9158fc	1.1355281
192	0xbcad7b91	-0.021177085
193	0x3d578ef5	0.05262657
194	0x3f056147	0.5210156
195	0xbe6b4858	-0.22976816
196	0x3ca827b8	0.020526752
197	0x3e4bf0fa	0.19916144
198	0x3f3acaf2	0.7296592
199	0xbdfbaffc	-0.12289426
200	0x3fd5d547	1.6705712
201	0x3ef3d1b3	0.47620925
202	0x3e87de3a	0.26536733
203	0x3fea8ac9	1.8323604
204	0x3fb63310	1.4234333
205	0x3fa1e035	1.2646548
206	0x3ffc2dda	1.9701493
207	0x3f18c094	0.5966885
208	0x3f2f51e6	0.6848434
209	0x3f6d62e8	0.92729044
210	0x3edc79b1	0.43061593
211	0x3f7577d1	0.9588595
212	0x3fc1fbd8	1.5154982
213	0x3f7024ef	0.93806356
214	0x3fd3f0e5	1.655789
215	0x40191ab8	2.3922558
216	0x3fb700e0	1.4297142
217	0x3f552062	0.8325254
218	0x3e801398	0.2501495
219	0x3f442a28	0.76626825
220	0x3c1115b8	0.008855276
221	0xbf423060	-0.75855064
222	0x3fb273ca	1.3941586
223	0x3e8ce374	0.27517283
224	0xbeaa09a3	-0.33210477
225	0x3f94e178	1.1631308
226	0x3f0a42b0	0.5400801
227	0x3f5760a2	0.84131825
228	0xbe2903b2	-0.16505316
229	0xbe8aaf6e	-0.27086967
230	0x3cc3843a	0.023866761
231	0x3f4741aa	0.7783457
232	0x3ea61805	0.324402
233	0x3f1f6783	0.6226732
234	0x3f3e4977	0.7433085
235	0x3f35af2f	0.70970434
236	0x3fc653ec	1.5494361
237	0x3fc3b1f7	1.5288686
238	0x3f15c8ec	0.5850971
239	0x3f952288	1.1651163
240	0x3f6d8c79	0.9279247
241	0xbe22e01c	-0.15905803
242	0x3f0da424	0.55328584
243	0xbfbc532a	-1.471288
244	0xbf901793	-1.1257194
245	0xc0148669	-2.3207037
246	0xbfb6122d	-1.4224297
247	0x3ead8977	0.3389394
248	0xbfafacd7	-1.3724622
249	0xc08c2f1f	-4.380752
250	0xbff4eb7b	-1.9134363
251	0xc021215d	-2.5176613
252	0xc02349b1	-2.5513728
253	0xbf561210	-0.8362131
254	0xbf95c5d3	-1.1700996
255	0xc00408a8	-2.0630283

conv56.1.weight f4 [32]
0	0x3fe4cc9f	1.7874945
1	0x3fcaaeee	1.5834634
2	0x3fb8b0a0	1.4428902
3	0x3fd78865	1.6838499
4	0x40012021	2.017586
5	0x3fea7ca1	1.8319284
6	0x3fafc3d8	1.3731642
7	0x3fda576a	1.7057927
8	0x3fbbaed0	1.4662724
9	0x3fb7bb17	1.435397
10	0x3fd9d78f	1.7018908
11	0x3fe6d1ba	1.8032753
12	0x3fcd938a	1.606065
13	0x3fdcb7ab	1.7243551
14	0x3feed914	1.8659997
15	0x3fe2c96f	1.7717723
16	0x3ff76a2f	1.932928
17	0x3ff30e70	1.8988781
18	0x3fd6ccde	1.678127
19	0x3fd86f28	1.6908922
20	0x3ff5381f	1.9157752
21	0x3fd3fc50	1.6561375
22	0x3fdc3605	1.7203985
23	0x3fe6939d	1.8013798
24	0x3fdb907d	1.7153469
25	0x3fc0f01b	1.5073274
26	0x3fe5e313	1.7959923
27	0x3fea6cc8	1.8314447
28	0x3fbfd19b	1.4985842
29	0x3ff0943c	1.8795238
30	0x3ff76c2a	1.9329884
31	0x3fd4c6d9	1.6623183

conv56.1.bias f4 [32]
0	0xbeb4b9bf	-0.35297963
1	0xbf7ec98b	-0.9952628
2	0x3f2af06a	0.6677309
3	0x3df583f0	0.11988056
4	0xbfe961d6	-1.8232982
5	0xbf2eb85a	-0.6825005
6	0xbf4d25a1	-0.8013554
7	0xbe5e7921	-0.21725895
8	0xbd529eb0	-0.051420867
9	0xbe76e16c	-0.24109429
10	0xbf65ac9e	-0.8971652
11	0xbfa309ca	-1.2737362
12	0xbefb761b	-0.49113545
13	0xbf2266e3	-0.6343824
14	0xbf8b4f72	-1.088362
15	0xbf9d543a	-1.2291329
16	0xbf56351a	-0.83674777
17	0xbe8aec7f	-0.27133557
18	0xbf376cf0	-0.716506
19	0xbf253f77	-0.64549965
20	0xbf351ab6	-0.7074388
21	0xbf64e67e	-0.89414203
22	0x3ca691e0	0.02033323
23	0xbf7d91cd	-0.990506
24	0xbf163709	-0.58677727
25	0xbe1a413f	-0.15063952
26	0xbf599df8	-0.85006666
27	0x3a785c08	0.0009474163
28	0xbf3ac348	-0.72954226
29	0xbf803ad0	-1.0017948
30	0xbf2366b3	-0.6382858
31	0xbe7fecdf	-0.24992703

conv56.1.running_mean f4 [32]
0	0x408061b2	4.0119257
1	0xc11cbb33	-9.795703
2	0xc19541dc	-18.657158
3	0xc1486cdf	-12.52658
4	0xc1e4271a	-28.519093
5	0xc219c20b	-38.439495
6	0x40ef3a59	7.4758725
7	0xc17ad55c	-15.67709
8	0xc1e51819	-28.636766
9	0xc08668d7	-4.200298
10	0xc1cfe86f	-25.988493
11	0xc2015d12	-32.34089
12	0xc13360f8	-11.211174
13	0x409f038a	4.969182
14	0xc1946090	-18.54715
15	0xc167c4c2	-14.485537
16	0xc1bafd4d	-23.373682
17	0xc1ad99a3	-21.700018
18	0xc1a6d37a	-20.85326
19	0xc0f4507a	-7.634824
20	0xc1c97b20	-25.18512
21	0xc10bc730	-8.73613
22	0xc215da9f	-37.463497
23	0xc1bacb18	-23.349167
24	0x420970d6	34.36019
25	0xbfe700d7	-1.8047131
26	0xc1f5db98	-30.732224
27	0xc2220e0e	-40.513725
28	0xc07d707a	-3.95999
29	0xc09c8a77	-4.8919024
30	0xc1d60425	-26.752024
31	0xc136e8e9	-11.431863

conv56.1.running_var f4 [32]
0	0x44574243	861.03534
1	0x43dc7def	440.98386
2	0x4417f4b1	607.8233
3	0x441a7109	617.7662
4	0x43b889c6	369.07635
5	0x440a56a4	553.35376
6	0x4400dcc7	515.44965
7	0x4439a338	742.5503
8	0x447f68cc	1021.63745
9	0x43e6ff82	461.99615
10	0x44007545	513.83234
11	0x43e6aa34	461.3297
12	0x443b312c	748.7683
13	0x43efa9f0	479.32764
14	0x43d0ca37	417.5798
15	0x43edfd9e	475.98138
16	0x440f1321	572.2989
17	0x43f55bd6	490.71747
18	0x43cef21a	413.89142
19	0x441522e3	596.5451
20	0x4401d921	519.39264
21	0x441fcee7	639.23285
22	0x43da97c9	437.18582
23	0x43ea6907	468.82053
24	0x442b96fe	686.35925
25	0x43d3332c	422.39978
26	0x44367fb1	729.9952
27	0x442d205d	692.5057
28	0x43c34a9f	390.58298
29	0x440d107a	564.25745
30	0x440131a3	516.7756
31	0x441e42da	633.04456

conv56.4.weight f4 [32, 32, 1, 1]
0	0x3de8d0cb	0.11367949
1	0xbf898d28	-1.0746202
2	0xbeb42870	-0.351871
3	0xbf338664	-0.7012694
4	0x3f363c18	0.71185446
5	0xbfb3a8c3	-1.4035877
6	0xbf72ac43	-0.947941
7	0xbfbb3ed4	-1.4628549
8	0x3c995563	0.018717473
9	0x3fa4746d	1.284803
10	0xbf18cd23	-0.59688014
11	0xbf4d4e9a	-0.8019806
12	0x3ea7685f	0.32696816
13	0xbf26e105	-0.651871
14	0x3e539711	0.20663096
15	0xbf892976	-1.0715778
16	0x3e8d80c7	0.27637312
17	0x3f0ce60a	0.5503851
18	0xbeda470a	-0.42632324
19	0x3f3bd453	0.73370856
20	0x403aeffb	2.9208972
21	0x3fb6fabb	1.4295267
22	0x3f309f8c	0.6899345
23	0x3fe1e076	1.7646625
24	0xbe6f774a	-0.23385349
25	0xbf91e671	-1.139845
26	0xbf23be77	-0.639625
27	0x3f94fe2c	1.1640067
28	0x3fd9ad80	1.7006073
29	0xbf5869ff	-0.8453674
30	0xbeff40c8	-0.49854112
31	0x3d0dfc30	0.034664333
32	0xbf25cd0a	-0.6476599
33	0x3f8bf9ae	1.0935571
34	0x3fd40b9e	1.6566045
35	0x3f52e1e7	0.8237595
36	0xbf087def	-0.5331716
37	0xbf4c3e3c	-0.7978246
38	0xbfc4fc64	-1.5389524
39	0xbe3c0baa	-0.18363824
40	0xbfbce112	-1.4756186
41	0xbea50c46	-0.32235926
42	0xbe0f2005	-0.13977058
43	0xbfbfff6e	-1.4999826
44	0xbf361be9	-0.7113634
45	0x3eaf23e6	0.34207076
46	0x4024b522	2.5735555
47	0xbe411436	-0.18855366
48	0xbf946e63	-1.1596187
49	0x3f24dd6d	0.6440037
50	0x3f12948f	0.5725793
51	0xbfbefe0a	-1.4921277
52	0xbf15cd97	-0.5851683
53	0xbf826db4	-1.0189729
54	0xbe272a53	-0.16324739
55	0x3fc3a056	1.5283306
56	0x3fd4acfb	1.661529
57	0x3f7edd22	0.9955617
58	0xbf35c9a0	-0.7101078
59	0xbf01974a	-0.50621474
60	0xbe86877c	-0.2627524
61	0xbe938b33	-0.28817138
62	0xbe6dc8df	-0.23221157
63	0xbfa718c6	-1.3054435
64	0xbfa62fe8	-1.298337
65	0xbf032b28	-0.51237726
66	0x3f72d5b9	0.94857365
67	0x3ff784ba	1.933738
68	0xbfe2aae7	-1.7708405
69	0xbeb9cf62	-0.36291033
70	0x3f1e0a7f	0.61734766
71	0xbf2db91b	-0.67860574
72	0xbfc533bf	-1.5406417
73	0x3e5e2cee	0.21696827
74	0xbf212972	-0.62953866
75	0xbf6a5f2b	-0.91551465
76	0xbd05142f	-0.03248995
77	0xbf4709f4	-0.7774956
78	0xbe915307	-0.28383657
79	0xbf248826	-0.64270246
80	0x4016dd44	2.357255
81	0xbf39588e	-0.7240075
82	0x3fda8472	1.7071669
83	0x3e1b1fca	0.15148845
84	0xbdb70dbc	-0.089381665
85	0x3f873fa3	1.0566295
86	0xbf55a2e5	-0.8345168
87	0xbf84a628	-1.0363207
88	0xbf22b4b1	-0.63556963
89	0xbff08225	-1.8789717
90	0xbf3513a5	-0.707331
91	0x3f4c90c9	0.79908425
92	0x3f4cd0a0	0.80005836
93	0x3d0b9afa	0.034083344
94	0xbf7e1f56	-0.99266565
95	0x3ed0a03f	0.40747258
96	0x3e8e7b5a	0.27828485
97	0xbd3ee56e	-0.04660552
98	0x3f404263	0.751013
99	0xbec91efa	-0.39281446
100	0xbf2c0792	-0.6719905
101	0xbffd2139	-1.9775764
102	0xbea252ed	-0.31703892
103	0xbf989384	-1.1920018
104	0xbe937d2d	-0.2880644
105	0x401d0f44	2.4540567
106	0x3f8f33d4	1.1187692
107	0xbf3d3874	-0.73914266
108	0xbd1d7a40	-0.038446665
109	0x3e438caa	0.19096628
110	0x3fb2e076	1.397475
111	0xbfb10848	-1.3830652
112	0x3f6a3cb4	0.91498876
113	0xbfccd2c3	-1.6001819
114	0xbf921741	-1.1413347
115	0x3f0c989b	0.5492036
116	0xbf817c4d	-1.0116059
117	0xbf491959	-0.785543
118	0xbf3c7803	-0.73620623
119	0x3e05f022	0.13079885
120	0xbf30c0c1	-0.6904412
121	0x3fb76786	1.4328468
122	0x3f4a4a16	0.79019296
123	0x3f8f7e3b	1.1210397
124	0xc023a118	-2.5567074
125	0xbf12c605	-0.57333404
126	0x3e4b7ccc	0.19871825
127	0xbf4a97c9	-0.79137856
128	0x3f482f5d	0.7819727
129	0x3f972a5e	1.1809804
130	0xbd8a8e02	-0.06765367
131	0x3ea67d9a	0.325177
132	0xbf128b2f	-0.5724363
133	0x401cfe71	2.4530299
134	0xbfbad7f5	-1.4597155
135	0xbf033f0a	-0.51268065
136	0x3ff0a5f8	1.880065
137	0xbf9fc808	-1.248292
138	0x3e73713a	0.23773661
139	0x3e81a8d2	0.25324112
140	0xbe234aba	-0.15946475
141	0xbf0c0486	-0.546944
142	0x3f83cb36	1.029639
143	0xbfe60829	-1.797124
144	0xbfd5ebe7	-1.6712617
145	0x3fc7d956	1.5613201
146	0xbf82207a	-1.0166161
147	0x3f7a685a	0.9781548
148	0x3dc49fb4	0.096007735
149	0x3f129f69	0.5727449
150	0x3fca2858	1.5793562
151	0xbc73f6dd	-0.0148904
152	0x3f45048d	0.7696007
153	0xbf2cb5a2	-0.6746465
154	0xc0050ab7	-2.078779
155	0x3f852ab8	1.0403662
156	0xbf55819d	-0.834009
157	0xbf98525e	-1.1900136
158	0xbe59f69f	-0.21285485
159	0xbf1bfd51	-0.60933405
160	0xbfc1e41f	-1.5147742
161	0x3f5a0fe1	0.8518048
162	0xbf19af41	-0.6003304
163	0x3fa89ddf	1.3173178
164	0x3ef32560	0.47489452
165	0xbfb57d14	-1.4178796
166	0xbf07ba63	-0.5301878
167	0xbfec6705	-1.8468939
168	0xc00a8295	-2.16422
169	0xbf36b3b6	-0.7136797
170	0x3db11a21	0.08647562
171	0xbfadd043	-1.3579181
172	0xbecadb69	-0.39620522
173	0xbfb0987d	-1.3796536
174	0x3f102346	0.56303823
175	0x3fc0b6d8	1.50558
176	0x3fdc6be3	1.7220424
177	0xbf99e8ef	-1.2024211
178	0x3f0033a6	0.5007881
179	0x3e85c50a	0.2612689
180	0xbf5de8a1	-0.8668309
181	0xbfa9ec47	-1.3275231
182	0xbefa4aa2	-0.48885065
183	0xbe0622b2	-0.13099173
184	0xbfc39961	-1.5281183
185	0x3ead1c08	0.3381045
186	0xbf1f17e0	-0.62145805
187	0xbfa84414	-1.3145776
188	0xbfbd4d2e	-1.4789178
189	0xbfa77651	-1.3082982
190	0xbfa251ed	-1.2681252
191	0x3b8916f6	0.0041836454
192	0xbfdeb441	-1.7398759
193	0x3d6f672d	0.058448005
194	0xbfc457a8	-1.533925
195	0xbed03647	-0.4066641
196	0xbe6c2a80	-0.23063087
197	0xbfd0efe1	-1.6323205
198	0xbefd6308	-0.49489617
199	0xbf4d4365	-0.8018096
200	0xbf093948	-0.5360303
201	0xbf284930	-0.65736675
202	0xbf9ccd05	-1.2250067
203	0x3fb5f27c	1.4214625
204	0x3edc10c3	0.42981538
205	0x3f86d72d	1.0534416
206	0x3fae5793	1.3620476
207	0xbf7b13cd	-0.9807709
208	0xbf83b276	-1.0288837
209	0x3e0f2930	0.13980556
210	0xbe04d1a2	-0.12970594
211	0xbfd15b3f	-1.6355971
212	0x3f2bc425	0.6709617
213	0x3fbe597b	1.4871057
214	0xbf3b26b0	-0.7310591
215	0x3e846e2b	0.258653
216	0xbfb348f1	-1.4006635
217	0x3fa0efb6	1.2573154
218	0x3fd88843	1.6916584
219	0xbf83aca3	-1.028706
220	0xbe412224	-0.1886068
221	0xc02a55ce	-2.661487
222	0x3e418ae2	0.18900636
223	0x3eb5bd37	0.35495922
224	0x3fb1913e	1.3872449
225	0xbf074581	-0.5284043
226	0x3eeb8d51	0.46006253
227	0x3e5ed726	0.2176176
228	0x3fe0d217	1.7564114
229	0x3fd7c865	1.685803
230	0x3f938717	1.1525601
231	0xbf770d00	-0.9650421
232	0xbfb1fc29	-1.3905078
233	0x3edfb088	0.4368937
234	0xbf44e94c	-0.7691848
235	0xbed7ff4c	-0.42186964
236	0xbfc1a605	-1.512879
237	0xbfa906e9	-1.3205234
238	0x3fa134b8	1.2594213
239	0x3fcc8097	1.5976743
240	0xbedc5a31	-0.4303756
241	0x3fc12895	1.509051
242	0xbf2013d4	-0.62530255
243	0x3fffa211	1.9971334
244	0x3f85fef9	1.0468436
245	0xbf650ea9	-0.89475495
246	0x3f6e112a	0.9299494
247	0x3f456da1	0.77120405
248	0xbc136974	-0.00899731
249	0xbf80aec8	-1.0053339
250	0xbebceb20	-0.36898136
251	0xbcf578d1	-0.029964836
252	0x3d5b028e	0.053469233
253	0x3fbdfa37	1.4841985
254	0x3f7b0c4e	0.9806565
255	0x3f8c2f7a	1.0951989
